…
64F', beta1=0.5, clamp_lower=-0.01, clamp_upper=0.01, cuda=True, data_name='miniImageNet', dataset_dir='/content/classification_dataset', episodeSize=1, episode_test_num=1000, episode_train_num=5000, episode_val_num=1000, epochs=30, imageSize=84, lr=0.005, mode='train', nc=3, neighbor_k=3, ngpu=1, outf='./results/DN4_DA_miniImageNet_Conv64F_3Way_5Shot_K3', print_freq=100, query_num=10, resume='/content/DN4-master_new/DN4-master/results/DN4_miniImageNet_Conv64F_5Way_5Shot_K3/model_best.pth.tar', shot_num=5, testepisodeSize=1, way_num=3, workers=8)
FourLayer_64F(
  (features): Sequential(
    (0): Conv2d(3, 64, kernel_size=(3, 3), stride=(1, 1), padding=(1, 1), bias=False)
    (1): BatchNorm2d(64, eps=1e-05, momentum=0.1, affine=True, track_running_stats=True)
    (2): LeakyReLU(negative_slope=0.2, inplace=True)
    (3): MaxPool2d(kernel_size=2, stride=2, padding=0, dilation=1, ceil_mode=False)
    (4): Conv2d(64, 64, kernel_size=(3, 3), stride=(1, 1), padding=(1, 1), bias=False)
    (5): BatchNorm2d(64, eps=1e-05, momentum=0.1, affine=True, track_running_stats=True)
    (6): LeakyReLU(negative_slope=0.2, inplace=True)
    (7): MaxPool2d(kernel_size=2, stride=2, padding=0, dilation=1, ceil_mode=False)
    (8): Conv2d(64, 64, kernel_size=(3, 3), stride=(1, 1), padding=(1, 1), bias=False)
    (9): BatchNorm2d(64, eps=1e-05, momentum=0.1, affine=True, track_running_stats=True)
    (10): LeakyReLU(negative_slope=0.2, inplace=True)
    (11): Conv2d(64, 64, kernel_size=(3, 3), stride=(1, 1), padding=(1, 1), bias=False)
    (12): BatchNorm2d(64, eps=1e-05, momentum=0.1, affine=True, track_running_stats=True)
    (13): LeakyReLU(negative_slope=0.2, inplace=True)
  )
  (slf_attn): MultiHeadAttention(
    (w_qs): Linear(in_features=64, out_features=64, bias=False)
    (w_ks): Linear(in_features=64, out_features=64, bias=False)
    (w_vs): Linear(in_features=64, out_features=64, bias=False)
    (attention): ScaledDotProductAttention(
      (dropout): Dropout(p=0.1, inplace=False)
      (softmax): Softmax(dim=2)
    )
    (layer_norm): LayerNorm((64,), eps=1e-05, elementwise_affine=True)
    (fc): Linear(in_features=64, out_features=64, bias=True)
    (dropout): Dropout(p=0.5, inplace=False)
  )
  (imgtoclass): ImgtoClass_Metric()
)
===================================== Epoch 0 =====================================
Namespace(basemodel='Conv64F', beta1=0.5, clamp_lower=-0.01, clamp_upper=0.01, cuda=True, data_name='miniImageNet', dataset_dir='/content/classification_dataset', episodeSize=1, episode_test_num=1000, episode_train_num=5000, episode_val_num=1000, epochs=30, imageSize=84, lr=0.005, mode='train', nc=3, neighbor_k=3, ngpu=1, outf='./results/DN4_DA_miniImageNet_Conv64F_3Way_5Shot_K3', print_freq=100, query_num=10, resume='/content/DN4-master_new/DN4-master/results/DN4_miniImageNet_Conv64F_5Way_5Shot_K3/model_best.pth.tar', shot_num=5, testepisodeSize=1, way_num=3, workers=8)
FourLayer_64F(
  (features): Sequential(
    (0): Conv2d(3, 64, kernel_size=(3, 3), stride=(1, 1), padding=(1, 1), bias=False)
    (1): BatchNorm2d(64, eps=1e-05, momentum=0.1, affine=True, track_running_stats=True)
    (2): LeakyReLU(negative_slope=0.2, inplace=True)
    (3): MaxPool2d(kernel_size=2, stride=2, padding=0, dilation=1, ceil_mode=False)
    (4): Conv2d(64, 64, kernel_size=(3, 3), stride=(1, 1), padding=(1, 1), bias=False)
    (5): BatchNorm2d(64, eps=1e-05, momentum=0.1, affine=True, track_running_stats=True)
    (6): LeakyReLU(negative_slope=0.2, inplace=True)
    (7): MaxPool2d(kernel_size=2, stride=2, padding=0, dilation=1, ceil_mode=False)
    (8): Conv2d(64, 64, kernel_size=(3, 3), stride=(1, 1), padding=(1, 1), bias=False)
    (9): BatchNorm2d(64, eps=1e-05, momentum=0.1, affine=True, track_running_stats=True)
    (10): LeakyReLU(negative_slope=0.2, inplace=True)
    (11): Conv2d(64, 64, kernel_size=(3, 3), stride=(1, 1), padding=(1, 1), bias=False)
    (12): BatchNorm2d(64, eps=1e-05, momentum=0.1, affine=True, track_running_stats=True)
    (13): LeakyReLU(negative_slope=0.2, inplace=True)
  )
  (slf_attn): MultiHeadAttention(
    (w_qs): Linear(in_features=64, out_features=64, bias=False)
    (w_ks): Linear(in_features=64, out_features=64, bias=False)
    (w_vs): Linear(in_features=64, out_features=64, bias=False)
    (attention): ScaledDotProductAttention(
      (dropout): Dropout(p=0.1, inplace=False)
      (softmax): Softmax(dim=2)
    )
    (layer_norm): LayerNorm((64,), eps=1e-05, elementwise_affine=True)
    (fc): Linear(in_features=64, out_features=64, bias=True)
    (dropout): Dropout(p=0.5, inplace=False)
  )
  (imgtoclass): ImgtoClass_Metric()
)
===================================== Epoch 0 =====================================
Trainset: 5000
Valset: 1000
Eposide-(0): [0/5000]	Time 0.987 (0.987)	Data 0.535 (0.535)	Loss 1.050 (1.050)	Prec@1 53.333 (53.333)
Eposide-(0): [100/5000]	Time 0.114 (0.125)	Data 0.000 (0.005)	Loss 0.961 (0.947)	Prec@1 53.333 (54.389)
…
Namespace(basemodel='Conv64F', beta1=0.5, clamp_lower=-0.01, clamp_upper=0.01, cuda=True, data_name='miniImageNet', dataset_dir='/content/classification_dataset', episodeSize=1, episode_test_num=1000, episode_train_num=10000, episode_val_num=1000, epochs=30, imageSize=84, lr=0.005, mode='train', nc=3, neighbor_k=3, ngpu=1, outf='./results/DN4_DA_miniImageNet_Conv64F_3Way_5Shot_K3', print_freq=100, query_num=10, resume='/content/DN4-master_new/DN4-master/results/DN4_miniImageNet_Conv64F_5Way_5Shot_K3/model_best.pth.tar', shot_num=5, testepisodeSize=1, way_num=3, workers=8)
FourLayer_64F(
  (features): Sequential(
    (0): Conv2d(3, 64, kernel_size=(3, 3), stride=(1, 1), padding=(1, 1), bias=False)
    (1): BatchNorm2d(64, eps=1e-05, momentum=0.1, affine=True, track_running_stats=True)
    (2): LeakyReLU(negative_slope=0.2, inplace=True)
    (3): MaxPool2d(kernel_size=2, stride=2, padding=0, dilation=1, ceil_mode=False)
    (4): Conv2d(64, 64, kernel_size=(3, 3), stride=(1, 1), padding=(1, 1), bias=False)
    (5): BatchNorm2d(64, eps=1e-05, momentum=0.1, affine=True, track_running_stats=True)
    (6): LeakyReLU(negative_slope=0.2, inplace=True)
    (7): MaxPool2d(kernel_size=2, stride=2, padding=0, dilation=1, ceil_mode=False)
    (8): Conv2d(64, 64, kernel_size=(3, 3), stride=(1, 1), padding=(1, 1), bias=False)
    (9): BatchNorm2d(64, eps=1e-05, momentum=0.1, affine=True, track_running_stats=True)
    (10): LeakyReLU(negative_slope=0.2, inplace=True)
    (11): Conv2d(64, 64, kernel_size=(3, 3), stride=(1, 1), padding=(1, 1), bias=False)
    (12): BatchNorm2d(64, eps=1e-05, momentum=0.1, affine=True, track_running_stats=True)
    (13): LeakyReLU(negative_slope=0.2, inplace=True)
  )
  (slf_attn): MultiHeadAttention(
    (w_qs): Linear(in_features=64, out_features=64, bias=False)
    (w_ks): Linear(in_features=64, out_features=64, bias=False)
    (w_vs): Linear(in_features=64, out_features=64, bias=False)
    (attention): ScaledDotProductAttention(
      (dropout): Dropout(p=0.1, inplace=False)
      (softmax): Softmax(dim=2)
    )
    (layer_norm): LayerNorm((64,), eps=1e-05, elementwise_affine=True)
    (fc): Linear(in_features=64, out_features=64, bias=True)
    (dropout): Dropout(p=0.5, inplace=False)
  )
  (imgtoclass): ImgtoClass_Metric()
)
===================================== Epoch 0 =====================================
Trainset: 10000
Valset: 1000
Eposide-(0): [0/10000]	Time 0.961 (0.961)	Data 0.442 (0.442)	Loss 1.056 (1.056)	Prec@1 33.333 (33.333)
Eposide-(0): [100/10000]	Time 0.121 (0.127)	Data 0.000 (0.005)	Loss 0.931 (0.989)	Prec@1 53.333 (51.155)
…
